static/embeddings/test_arrays_model_2_b-hard-squared-dist_50classes_ep22_080323.npz (npz, 837744 bytes, 1 tensors)

test_embeddings f4 [204, 1024]
000000 6d f4 34 bc 41 5f 27 3c b9 2a c1 bc e8 b6 51 bc
       -0.011044604 0.010215581 -0.023579942 -0.012799956
000010 f5 78 29 bd 4b 3b 64 3d 1c 38 81 bc 98 06 01 3c
       -0.04137512 0.05572061 -0.015773825 0.007875107
000020 9b e7 a8 3c bc 8b 39 3d 41 30 48 bd 39 5b 8c 3c
       0.02061825 0.045299277 -0.048874144 0.017133342
000030 93 b2 15 bd 2a bd a4 bc 74 49 1c 3c 57 70 73 bd
       -0.036547255 -0.020109732 0.009538997 -0.059433307
000040 b1 ac 1d bd dc 77 d7 3b 4b 2f 33 3d bd dc 0c 3b
       -0.03849477 0.0065755676 0.043746274 0.0021493875
000050 0a 7b c9 3b 4c 81 2c bd ae bd fe 3b 0c d0 3f 3c
       0.0061487006 -0.042115495 0.0077740764 0.011707317
000060 d2 68 51 bc 6d 9e c7 3c 32 17 53 39 5c 1f b8 3c
       -0.012781339 0.024367535 0.00020131169 0.02247589
000070 a1 f2 28 bd a6 d9 4c bd 36 38 52 bd a5 d6 01 bd
       -0.041247014 -0.050012253 -0.05132314 -0.03169884
000080 97 ed ac 3c 64 f8 04 bd 9d ad 88 bc c8 b8 0d bd
       0.021109385 -0.032463446 -0.016684348 -0.03460005
000090 52 58 82 bc 3a 11 92 bc 58 82 07 bc 9f 80 c8 3c
       -0.015911255 -0.01783048 -0.008270822 0.024475394
0000a0 94 5d ed 3b 9e 2f a9 bd 42 23 82 3c bf bb 60 3d
       0.0072438214 -0.082610354 0.015885953 0.05486655
0000b0 46 82 91 3c 56 2f 88 3d af 14 31 3d f8 19 db 3c
       0.017762315 0.066496536 0.043232616 0.026745781
0000c0 44 3f 8c bc d5 25 58 b8 65 46 4e bc 04 d5 0b bd
       -0.017120011 -5.1533647e-05 -0.012590026 -0.034138694
0000d0 d5 87 9e 3d e6 00 c3 3b f9 32 1f bc c9 f8 f0 bb
       0.07740752 0.005951035 -0.009716743 -0.0073538763
0000e0 2d 92 86 3c bf c5 fb 3b 53 f6 90 bc e7 0d f2 3a
       0.016427124 0.0076834853 -0.017695582 0.0018467278
0000f0 65 ce e8 bc fa 96 1b b9 1b 0b 05 3d 66 af bc bc
       -0.02841873 -0.00014838195 0.032481294 -0.023032855
000100 16 2e fb 3c 1d 36 26 3d 66 6b b1 bb 06 7d 15 bd
       0.030661624 0.04057895 -0.005414414 -0.036496185
000110 7a e2 04 bd 2b cf 57 bc 82 ca 6b 3c 65 f8 be 3c
       -0.032442547 -0.013171951 0.014391543 0.023311803
000120 0f 12 40 bd 52 49 1e 3b e7 f0 01 bd 00 a9 4a 3c
       -0.046892222 0.002415259 -0.031723883 0.012369394
000130 c3 49 07 3d 7e 74 fb bb ba d6 79 bb fc ab cb bc
       0.03302933 -0.007673799 -0.0038122372 -0.024862282
000140 41 e6 6b 3d 17 6f a8 3b f8 cc f1 3c 2d 61 a0 ba
       0.057592634 0.005140196 0.029516682 -0.0012235992
000150 dd 09 a3 3d 6a 3a f7 bc f5 66 f8 bc fc e9 19 3d
       0.07960866 -0.030179221 -0.030322531 0.03757666
000160 1b 78 c7 3c 31 dd 06 bb 37 d3 a1 3d 9d db 1a 3d
       0.024349263 -0.0020578618 0.07901614 0.037807096
000170 5a 74 b9 bc 07 76 d9 bc 03 53 39 3b 91 30 fa 3c
       -0.022638489 -0.026545538 0.0028278239 0.030540736
000180 d7 83 08 3c 3d 85 22 3c ef 14 31 3d 2f 54 85 bb
       0.008332214 0.009919462 0.043232854 -0.0040688734
000190 77 bd 21 bd 11 6e c4 bb 50 79 df 3b 04 18 48 bb
       -0.03948733 -0.0059945663 0.0068198815 -0.0030531893
0001a0 d7 e7 0c bd e9 d2 b0 3c 2d 7d 02 3d 49 01 b0 bc
       -0.034400787 0.021584945 0.03185766 -0.021484988
0001b0 10 e4 b9 3a fc 44 42 3c dd a6 c9 bc 68 a1 e1 bc
       0.0014182348 0.0118572675 -0.0246157 -0.027542785
0001c0 10 88 93 3c bd 0a 72 bc c0 23 68 3c b7 36 80 3d
       0.018009216 -0.014773068 0.01416868 0.06260436
0001d0 ab 6b 06 3d c1 f6 9e bc 4a 1c 05 3d 82 eb 64 bd
       0.032817524 -0.01940477 0.03249768 -0.05588866
0001e0 1d 56 53 3d 01 91 7b 3d 3a 3b ca 3c 77 e7 20 bc
       0.051595796 0.061417583 0.024686445 -0.0098208105
0001f0 61 65 d6 bd aa 4d 4f bc 85 83 0e 3d ea 1f 0e 3d
       -0.10468555 -0.012652794 0.034793396 0.034698404
000200 39 ad 1d bc 9a d5 03 bd e7 71 4c bd ea b2 32 bc
       -0.009623819 -0.03218613 -0.049913313 -0.010906914
000210 c0 87 14 bd 93 65 1a 3d cb 5b 0e 3d 8d ce 99 3c
       -0.036262274 0.037694525 0.03475551 0.018775249
000220 09 88 14 bd 67 84 a0 bc fe e6 a3 3c 9e c6 13 bc
       -0.036262546 -0.019594384 0.020007607 -0.009019522
000230 e2 c5 b4 3b 96 26 3b bb 89 60 63 3d 8e c2 93 bb
       0.0055167535 -0.0028556935 0.055511985 -0.0045092767
000240 08 f2 7b bc 6b ef 72 bd a4 f3 8d 3c 49 62 05 3d
       -0.015377529 -0.059310358 0.017328091 0.032564435
000250 a8 01 55 3b 9c bd f5 bc a7 2c 98 bd 7a 22 30 bd
       0.0032502208 -0.02999764 -0.07430392 -0.04300163
000260 bf 25 94 3c 1a 87 ba b5 7c cd e0 bc cb b3 03 3c
       0.018084405 -1.38974e-06 -0.027441733 0.008038471
000270 32 bd 9e 3c 2c 30 52 bd 65 0c 55 3c 89 11 7b 3c
       0.019377325 -0.05131547 0.013003443 0.015324005
000280 e3 c8 24 3d a2 ef 8a 3c e2 96 1f bd 38 eb fb 3c
       0.040230643 0.016959969 -0.038962252 0.03075181
000290 6b ac 80 bd 00 8f 39 bc e3 87 a8 3b 63 43 00 3d
       -0.06282886 -0.011325598 0.005143152 0.031314265
0002a0 5c 8d 8e 3c de 43 90 bb 9f 5f 3d 3d 87 5d 8c 3c
       0.01740139 -0.0044026216 0.04623377 0.017134441
0002b0 f5 87 f0 3c a9 5a 0b 3d fa 71 6e bd f8 e6 21 bd
       0.029361704 0.034022007 -0.058214165 -0.03952691
0002c0 fa 2a 1f 3b 0f 5a 49 3d ac 01 a1 bc 2d d7 d4 bb
       0.002428709 0.049158152 -0.019654118 -0.0064953775
0002d0 71 dd 9a bc c8 35 1c bd 64 40 80 bd fa 95 46 3c
       -0.01890442 -0.038137227 -0.062622815 0.012120718
0002e0 7b 42 b4 bc 12 38 5d 3c 44 02 14 3b 0c da 9e 3c
       -0.022004357 0.013502138 0.0022584358 0.019391082
0002f0 fb c9 1b 3d 0c a9 6a bd cd b7 57 3d 8b 10 4f 3b
       0.03803442 -0.057290122 0.05266552 0.0031595554
000300 e1 f9 f2 3c af 02 37 3c 9b ed 0e bb b0 0c f4 3c
       0.029660167 0.011170073 -0.0021809104 0.029791206
000310 bc 95 25 bc 58 9e 1a 3d e6 46 97 3c 6a d9 2c bc
       -0.0101065 0.037748665 0.018466424 -0.010549882
000320 b6 4d d6 3c a6 01 b0 3c ca 1f 98 3c 48 05 45 3c
       0.026160102 0.021485161 0.018569846 0.012025185
000330 a7 18 a0 3c 76 e8 39 3d 7d 49 c5 bb 93 94 3e bc
       0.019543005 0.045387708 -0.0060207234 -0.011632103
000340 14 cf 29 3c 29 c4 6e bc cb 98 95 39 98 05 b7 3c
       0.010364313 -0.014573135 0.00028533334 0.022341534
000350 46 ac b4 3d 9c ba 01 bd 03 e7 79 bd f8 00 8e 3c
       0.08821921 -0.031672105 -0.061011326 0.017334446
000360 6b 55 81 3c 89 33 20 bb e4 cc 42 3c c9 ca 0a 3d
       0.0157878 -0.002444478 0.01188967 0.033884797
000370 be 3b 1b bd dd 68 d9 bc 0a ab b6 3c 05 df 64 bc
       -0.03789877 -0.02653926 0.022298355 -0.013969188
000380 4e be 9a ba f7 ea ad 3d 57 d4 22 bc 6a 0a 74 bd
       -0.0011805983 0.084920816 -0.009938321 -0.059580244
000390 bb 73 1e 3c f2 6f 0d 3d a9 6c 12 bc 27 c3 47 bc
       0.009671147 0.034530587 -0.008937039 -0.012192524
0003a0 fb b6 b5 38 43 1b d2 3c 31 0c fc bb 45 e4 a0 3a
       8.664835e-05 0.025647765 -0.007691883 0.0012275061
0003b0 7c 16 79 3d 48 5f 59 bd 8f 9e 92 bc 92 c5 e0 3a
       0.06081246 -0.053069383 -0.017897872 0.0017148724
0003c0 19 cf 96 bb 76 ca 02 bc ed 63 e6 bc ce fd b0 3c
       -0.0046023247 -0.007982841 -0.02812382 0.021605399
0003d0 10 fe 30 bd 8f 31 0e 3d d7 8d 42 bd d5 b5 b6 bc
       -0.043211043 0.03471523 -0.04749855 -0.022303501
0003e0 74 46 17 bd a1 3e 02 3d 74 8b 0a 3d c2 34 0e bc
       -0.036932424 0.03179801 0.0338244 -0.008679571
0003f0 c9 7d eb bc 8d 83 12 3d 07 ba af bc dc c1 c5 3b
       -0.028746502 0.035769988 -0.02145101 0.0060350727
